H09networkEstimation/VehicalStateperML_RNN_epochs_2000_BS:128.pth (torch, 15145 bytes, 12 tensors)

linear_in.weight f4 [32, 6]
0.0070504425 -0.0055191135 -0.0145722935 0.010776106 0.005689847 0.009159984 0.027272807 -0.0029185212
0.007517274 -0.0063585537 -0.0025991718 -0.018247336 -0.012858333 -0.00073058775 -0.009293189 0.015105077
0.01533228 -0.019885061 -0.01248067 -0.0012814096 -0.014878003 0.0022330813 0.0132639455 -0.008522391
0.0047768946 0.0008617577 -0.002447579 -0.0018062912 0.0047704745 0.02138411 -0.022648538 -0.015693953
-0.012080249 0.013797837 0.00020163304 -0.0006855073 0.013142463 0.007743084 -0.017791014 -0.009658049
-0.03224452 -0.0038481005 0.014642187 -0.008547902 -0.012142834 -0.0062937085 0.004479308 0.012634066
0.0013462749 0.018183183 -0.0072023994 -0.01601713 0.002955699 -0.0015658002 0.003982303 0.0035102454
-0.005174905 0.0020647177 0.0056087556 -0.0015208132 -0.0137934815 0.0025813442 -0.0021292507 -0.0050721583
0.006289144 -0.024466911 0.0026105228 -0.008927558 0.004837527 -0.003654437 0.0074419016 -0.0049464335
-0.0022755621 -0.008145765 0.00029139195 0.023111178 -0.008326223 0.00073228806 -0.0020187614 -0.009337994
8.064412e-05 0.013735858 -0.012627782 -0.0067337197 -0.014172186 -0.0111118015 0.0015013735 -0.016698487
-0.0047409944 0.0039996365 -0.0034307542 -0.004883482 -0.002360231 0.001942937 0.0139335655 -0.0026762127
-0.001107776 1.6808342e-05 0.010957707 -0.022264209 0.0029184406 0.0010890045 -0.013605433 -0.007755589
0.01583941 0.014778739 -0.007888236 0.0049550417 0.010451376 0.007949314 0.016654208 0.0010332509
0.00035534173 0.017866904 0.010487945 0.005363804 0.0138649065 0.0014813986 0.005702117 0.0003004771
0.0112999175 0.015722793 -0.0038085713 -0.021108909 0.0053510824 0.006343879 -0.003479667 -0.00919688
0.0011735345 0.0047262576 0.005829494 -0.0014882655 0.0005584428 -0.0013491432 0.018163461 0.013699928
0.0074309544 -0.0044410354 0.005710754 -0.010269051 -0.011097906 -0.011949085 0.01929696 -0.005556967
0.003698823 -0.0075141424 -0.0050394596 0.0039695795 -0.0139775295 -0.016011167 0.007489528 -0.009030171
-0.018935464 -0.007552513 -0.009204442 -0.005529615 0.0018910565 0.0019766344 -0.013531897 -0.013480813
-0.015059261 0.009065559 0.0015585901 -0.0032059592 -0.008855078 0.010415431 -0.004778975 0.0012304609
-0.0007896116 -0.00060882163 0.0061478214 -0.01134165 0.0022994007 0.011223899 -0.007071956 0.0010497454
0.003757899 -0.0092134075 0.01529743 -0.008779111 0.00535625 0.015480537 -0.008543519 -0.0036430988
-0.013098406 0.016449105 0.0027795183 0.00038821282 1.8402689e-05 0.0037893571 -0.009847686 -0.01198077
00000000: 6607 e73b aed9 b4bb a1c0 6ebc 448e 303c
00000010: e571 ba3b c213 163c 396b df3c a944 3fbb
00000020: 7753 f63b 6a5b d0bb de56 2abb 707b 95bc
00000030: c2ab 52bc ea84 3fba 7642 18bc 497b 773c
00000040: 3e34 7b3c ffe5 a2bc b97b 4cbc f9f4 a7ba
00000050: dec2 73bc e358 123b 0551 593c 80a1 0bbc
00000060: 7f87 9c3b 95e7 613a 9067 20bb 13c1 ecba
00000070: a451 9c3b bb2d af3c 6d89 b9bc 9b90 80bc
00000080: 3dec 45bc 5310 623c 756d 5339 9eb3 33ba
00000090: 7c53 573c b2b9 fd3b 76be 91bc cb3c 1ebc
000000a0: d412 04bd 6a30 7cbb c9e5 6f3c 800c 0cbc
000000b0: bdf2 46bc 743b cebb 29c7 923b 1dff 4e3c
000000c0: 7d75 b03a e6f4 943c 1b02 ecbb 5b36 83bc
000000d0: 67b4 413b 893b cdba fb7d 823b 250c 663b
000000e0: 4092 a9bb 3750 073b a7c9 b73b 0656 c7ba
000000f0: 0efe 61bc c52b 293b e68a 0bbb 5934 a6bb
00000100: 2a15 ce3b d56e c8bc 4e15 2b3b e444 12bc
00000110: 1e84 9e3b 477f 6fbb 32db f33b b115 a2bb
00000120: 9921 15bb d175 05bc f7c5 9839 a753 bd3c
00000130: b66a 08bc 05f7 3f3a 324d 04bb 63fe 18bc
00000140: 7b1f a938 5d0c 613c c2e4 4ebc 89a6 dcbb
00000150: 7532 68bc 460e 36bc bcc9 c43a 44cb 88bc
00000160: 585a 9bbb 620f 833b 81d6 60bb 9e05 a0bb
00000170: 1bae 1abb 26aa fe3a 9c49 643c 6663 2fbb
00000180: cb32 91ba a4ff 8c37 f487 333c 6e63 b6bc
00000190: 4f43 3f3b edbc 8e3a 52e9 5ebc 9922 febb
000001a0: a6c1 813c 8622 723c a93d 01bc e75d a23b
000001b0: 403c 2b3c d73d 023c 686e 883c 266e 873a
000001c0: 294d ba39 9d5d 923c a1d5 2b3c d9c2 af3b
000001d0: a229 633c 7d2b c23a d3d8 ba3b 5b89 9d39
000001e0: 4a23 393c 16cd 803c 3999 79bb 97ec acbc
000001f0: 2258 af3b 50e0 cf3b 200b 64bb 83ae 16bc
00000200: 49d1 993a b9de 9a3b 5705 bf3b e711 c3ba
00000210: 7664 123a bcd5 b0ba 8acb 943c aa75 603c
00000220: 5d7f f33b 1b86 91bb 4721 bb3b 863f 28bc
00000230: fed3 35bc 18c6 43bc a914 9e3c 3817 b6bb
00000240: f467 723b 3239 f6bb 0d22 a5bb 3f13 823b
00000250: 0202 65bc da29 83bc b76a f53b 48f3 13bc
00000260: 8c1e 9bbc 127b f7bb 3ace 16bc c631 b5bb
00000270: 54dd f73a 6c8a 013b e4b4 5dbc a1de 5cbc
00000280: 1ebb 76bc b687 143c 9b49 cc3a 121b 52bb
00000290: e414 11bc 7ca5 2a3c f398 9cbb 6b47 a13a
000002a0: f0fd 4eba 5499 1fba aa73 c93b 54d2 39bc
000002b0: 8bb1 163b 72e4 373c debb e7bb 9c97 893a
000002c0: 1547 763b d5f3 16bc 12a2 7a3c 43d6 0fbc
000002d0: 7b83 af3b 14a2 7d3c 1efa 0bbc 0ec1 6ebb
000002e0: b29a 56bc 46c0 863c 9428 363b 0b89 cb39
000002f0: 795f 9a37 dd56 783b 3058 21bc fe4a 44bc

linear_in.bias f4 [32]
0.0 0.0 0.0 0.0 0.0 0.0 0.0 0.0
0.0 0.0 0.0 0.0 0.0 0.0 0.0 0.0
0.0 0.0 0.0 0.0 0.0 0.0 0.0 0.0
0.0 0.0 0.0 0.0 0.0 0.0 0.0 0.0
00000000: 0000 0000 0000 0000 0000 0000 0000 0000
00000010: 0000 0000 0000 0000 0000 0000 0000 0000
00000020: 0000 0000 0000 0000 0000 0000 0000 0000
00000030: 0000 0000 0000 0000 0000 0000 0000 0000
00000040: 0000 0000 0000 0000 0000 0000 0000 0000
00000050: 0000 0000 0000 0000 0000 0000 0000 0000
00000060: 0000 0000 0000 0000 0000 0000 0000 0000
00000070: 0000 0000 0000 0000 0000 0000 0000 0000

linear_32.weight f4 [32, 32]
0.004211534 0.6570348 0.027258042 -0.0026205194 -0.018315766 0.71801066 0.039129186 -0.047992818
0.005983513 0.010442788 -0.014339322 -0.009993636 0.004493616 0.02486973 0.21431306 0.28173327
-0.022199098 -0.021976303 -0.6725254 -0.0060619563 0.6082014 0.625867 0.0037480714 0.039777543
-0.020468863 0.01943754 0.026577178 -0.015515514 0.37130967 -0.58252335 -0.050280426 0.0044064363
-0.002228949 -0.567388 -0.0007141581 -0.0042213523 0.0019102496 -0.05423596 -0.016685259 0.0058854255
0.0341477 -0.0007006871 -0.0037340596 0.0054428973 -0.01716922 -0.010589307 -0.5123215 -0.21249677
0.023615299 0.0040455116 0.55469733 0.021333199 -0.592827 -0.6002423 0.012711249 0.0055455742
0.0014801783 0.010980344 0.0051249163 -0.008505483 -0.59531957 0.519303 0.024806026 0.003535622
-0.43599725 0.041338492 0.41520265 0.20035683 -0.4358267 0.046612002 0.04305458 0.43846843
-0.18191351 0.3465974 0.4368483 0.45852384 0.17134388 0.31809542 0.07430171 -0.42036003
0.11463659 0.21292047 -0.054708242 0.15096073 0.10252944 0.1041853 0.20507202 -0.44939443
-0.3649952 -0.15858121 -0.4490409 -0.34014097 0.08133337 -0.09031668 -0.17709972 0.44041502
-0.010291351 0.6303953 0.01509722 -0.0047885 -0.004221721 0.72346455 0.0010846269 0.024269449
-0.037750214 -0.03387198 -0.03934831 0.018651376 -0.014111098 -0.034069903 0.22850825 0.28101614
-0.022376526 0.051721215 -0.6699846 0.019596683 0.6130931 0.65270424 -0.01187802 -0.0030390036
-0.004149449 0.002323999 -0.017615952 -0.011400227 0.42645356 -0.58585733 0.00563076 -0.0024045105
0.019600289 0.6453897 0.011935211 0.013398126 0.0015596972 0.7243049 -0.0124946805 0.0011007701
0.015352128 0.022058086 -0.01131762 0.008597211 0.018833304 0.013508933 0.258769 0.26509264
-0.0025609825 -0.004842834 -0.65254265 -0.0017118913 0.64235896 0.65216714 0.00049311505 0.009614227
0.017032143 -0.00869163 -0.025811393 -0.0071145585 0.41151372 -0.59901667 0.020103585 0.000387179
0.08749186 -0.055269793 0.04607472 0.07489551 0.11976224 0.07596166 -0.108817145 -0.13496068
0.050602876 -0.017053481 -0.07869192 0.012040048 0.21246451 -0.040915404 -0.053246196 -0.1184899
0.09326853 -0.02466485 -0.041102275 -0.036214594 0.06073621 -0.008522305 -0.1352197 0.11219201
0.19967528 -0.079533964 -0.0029752674 0.09698828 0.03022087 -0.073809244 -0.24148755 -0.23056114
0.0004070914 -0.64339024 -0.0040053804 0.0073841847 0.0048372676 -0.27469674 0.012641195 0.00055536436
-0.025013382 0.010546694 -0.0046494734 -0.018837063 0.017398514 0.03736861 -0.64390945 -0.18640748
-0.021853235 0.0024123027 0.5890809 -0.022854516 -0.6022084 -0.64232844 0.0092341425 -0.010340471
0.014922988 -0.017760063 -0.0066687143 0.011038446 -0.6662849 0.59041053 -0.008011642 -0.007311023
-0.35737354 -0.03026288 -0.17375658 -0.03296391 -0.30331418 -0.0068944963 -0.19719817 0.3606834
0.050453518 -0.046529688 0.19029817 0.041905507 0.117806375 0.15853527 0.0040076845 -0.13236518
0.14310218 -0.033027183 0.0072920234 0.11517903 0.0074529196 0.012888437 0.004289922 -0.19722818
-0.013415015 0.08031982 -0.12936789 0.1044736 -0.05668195 -0.010381897 -0.12888804 0.083089344
00000000: e800 8a3b 6f33 283f 424c df3c 05bd 2bbb
00000010: f20a 96bc 8ccf 373f ed45 203d 1e94 44bd
00000020: 5811 c43b 3a18 2b3c 7aef 6abc 59bc 23bc
00000030: 2f3f 933b 9bbb cb3c e274 5b3e 583f 903e
00000040: e2da b5bc a607 b4bc a02a 2cbf 60a3 c6bb
00000050: 16b3 1b3f d238 203f 34a2 753b c7ed 223d
00000060: 51ae a7bc 7a3b 9f3c 62b8 d93c c834 7ebc
00000070: 4d1c be3e 4020 15bf d9f2 4dbd de63 903b
00000080: 8f13 12bb 5740 11bf 5736 3bba 4553 8abb
00000090: 5761 fa3a 8726 5ebd 86af 88bc 87da c03b
000000a0: 75de 0b3d 51ae 37ba 20b7 74bb 555a b23b
000000b0: 77a6 8cbc c67e 2dbc 8027 03bf c198 59be
000000c0: df74 c13c 3690 843b a500 0e3f f6c2 ae3c
000000d0: 83c3 17bf 7ba9 19bf d842 503c a6b7 b53b
000000e0: 8b02 c23a e7e6 333c eaee a73b 955a 0bbc
000000f0: dd66 18bf 0bf1 043f 0236 cb3c e5b5 673b
00000100: 083b dfbe 8d52 293d 7195 d43e 572a 4d3e
00000110: ad24 dfbe 3aec 3e3d 005a 303d ef7e e03e
00000120: 8947 3abe 3775 b13e 95aa df3e a3c3 ea3e
00000130: c574 2f3e 67dd a23e 7f2b 983d 6e39 d7be
00000140: 97c6 ea3d d307 5a3e c015 60bd 7395 1a3e
00000150: f4fa d13d 1a5f d53d 66fe 513e 0717 e6be
00000160: a7e0 babe 1d63 22be b0e8 e5be f526 aebe
00000170: 1c92 a63d f4f7 b8bd a159 35be 147e e13e
00000180: 0e9d 28bc 9661 213f 555a 773c d9e8 9cbb
00000190: 5d56 8abb f934 393f 0a2a 8e3a b9d0 c63c
000001a0: f89f 1abd 58bd 0abd b22b 21bd c5ca 983c
000001b0: 3c32 67bc e28c 0bbd 11fe 693e 59e1 8f3e
000001c0: fa4e b7bc a0d9 533d 1c84 2bbf 3989 a03c
000001d0: abf3 1c3f a017 273f 079c 42bc 052a 47bb
000001e0: 1af8 87bb 3c4e 183b 544f 90bc 05c8 3abc
000001f0: 1f58 da3e bffa 15bf 3d82 b83b fe94 1dbb
00000200: c990 a03c 4238 253f e78b 433c d083 5b3c
00000210: c16e cc3a 0c6c 393f 7db6 4cbc b747 903a
00000220: 7e87 7b3c 29b3 b43c 8a6d 39bc 51db 0c3c
00000230: 4d48 9a3c 9254 5d3c 5f7d 843e 39ba 873e
00000240: 28d6 27bb a3b0 9ebb 090d 27bf 8a61 e0ba
00000250: a371 243f 6df4 263f 6444 013a fe84 1d3c
00000260: fe86 8b3c 5767 0ebc 6a72 d3bc 3e21 e9bb
00000270: edb1 d23e 2859 19bf 46b0 a43c 49fe ca39
00000280: ef2e b33d 9462 62bd d8b8 3c3d d162 993d
00000290: e845 f53d c991 9b3d 86db debd 2233 0abe
000002a0: f644 4f3d beb3 8bbc 3b29 a1bd 9f43 453c
000002b0: 4c90 593e e996 27bd af18 5abd d5aa f2bd
000002c0: 9203 bf3d f10d cabc dc5a 28bd c155 14bd
000002d0: 88c6 783d 23a1 0bbc 0877 0abe edc4 e53d
000002e0: ad77 4c3e b4e2 a2bd b4fc 42bb cba1 c63d
000002f0: c291 f73c 4d29 97bd 8348 77be 3818 6cbe
00000300: e26e d539 39b5 24bf 913f 83bb 08f7 f13b
00000310: f181 9e3b 0da5 8cbe 041d 4f3c df95 113a
00000320: dde8 ccbc 0acc 2c3c 9c5a 98bb 2f50 9abc
00000330: 5487 8e3c d40f 193d 40d7 24bf 9ae1 3ebe
00000340: 8e05 b3bc b917 1e3b 02ce 163f 6539 bbbc
00000350: 542a 1abf a36f 24bf cd4a 173c 146b 29bc
00000360: 8c7f 743c 8d7d 91bc 3b85 dabb 99da 343c
00000370: a691 2abf 2525 173f 4343 03bc 4e91 efbb
00000380: aaf9 b6be dce9 f7bc 3fed 31be 2a05 07bd
00000390: ff4b 9bbe 3aeb e1bb 51ee 49be 7fab b83e
000003a0: 59a8 4e3d ea95 3ebd 86dd 423e 1ca5 2b3d
000003b0: 7844 f13d 1257 223e e552 833b bd8a 07be
000003c0: 6189 123e 8347 07bd edf1 ee3b fce2 eb3d
000003d0: 9f37 f43b 062a 533c 7992 8c3b 2ff6 49be
000003e0: a7ca 5bbc b87e a43d 0479 04be 41f6 d53d
000003f0: 552b 68bd d518 2abc 3afb 03be bf2a aa3d

linear_32.bias f4 [32]
0.21208462 0.34370676 -0.47102597 0.1952694 0.18286245 -0.23949423 0.28795472 -0.35277915
0.14540341 0.262098 0.20212263 0.25868767 -0.06503974 0.32807162 -0.47226045 -0.28983465
0.19694357 0.030876288 -0.44043037 0.18369699 0.18851802 0.19613819 0.18725218 -0.24950702
0.30686384 -0.2183568 -0.26326305 0.32853636 0.18367702 0.1969494 0.11687338 0.22525087
00000000: b62c 593e 55fa af3e 512a f1be b4f4 473e
00000010: 4b40 3b3e fa3d 75be cd6e 933e 789f b4be
00000020: a2e4 143e b631 863e 3cf9 4e3e b672 843e
00000030: 8e33 85bd 01f9 a73e 1fcc f1be 3565 94be
00000040: 93ab 493e 45f0 fc3c 1780 e1be 101b 3c3e
00000050: de0a 413e 73d8 483e 09bf 3f3e c57e 7fbe
00000060: 421d 9d3e ed98 5fbe 6aca 86be eb35 a83e
00000070: d415 3c3e 1aad 493e 505b ef3d 2aa8 663e

rnn.weight_ih_l0 f4 [32, 6]
-0.2169739 -0.8400034 -0.11001643 -0.7779807 -0.39442632 -0.33845922 -0.2753414 -0.1521857
0.010255542 0.0067603304 0.14430813 0.2315371 0.14907214 0.7600434 -0.07495334 0.037265025
-0.10464195 -0.19536203 1.0693802 0.29126436 0.13673332 0.0692764 0.5774601 0.51431346
-0.21980007 -0.83386767 -0.10124993 -0.72102493 -0.34540156 -0.24624515 -0.14517426 -0.45804602
-0.026199346 0.012666486 -0.51465625 -0.39651302 -0.22663622 -0.87222636 0.2932756 -0.9265944
-0.20392366 -0.31546262 -0.27734387 -0.8878153 -0.14523259 -0.7876598 -0.39159876 -0.309907
0.76475596 0.4979816 0.030568318 0.22022386 0.44814506 0.38440296 -0.038210016 -1.0358193
0.051614117 -0.5690466 -0.08867893 -0.05949938 -0.2812601 -0.9136003 -0.13324374 -0.7724092
-0.30052382 -0.24292763 0.2900619 0.71576756 -0.3224956 0.55917513 0.7676846 0.88215435
-0.27357432 -1.3042375 0.41766226 -0.65941393 -0.16839854 -0.17575881 -0.77616274 -0.2967689
-0.9094364 -0.39024383 -0.09483497 -0.0020838615 -0.15065625 -0.6560458 -0.015027687 0.0555963
-0.03144995 -0.003786351 0.24994165 0.56571233 0.0033187883 -0.009428722 -0.030055756 -0.05564727
0.56743795 0.96965 -0.12044421 0.21888721 -0.04587698 -0.0975668 0.48721182 0.4235554
0.027406925 0.15227613 0.14672676 0.12862614 -0.58420503 -0.19280344 -0.002727652 0.0020412495
-0.02842836 0.06613903 1.6819838 1.2024565 -0.2275858 0.3110304 0.9579591 0.9387326
0.40254536 -0.29012132 0.0013786501 0.0010754752 0.06726473 0.10150173 0.33692378 -0.29451603
-0.018442381 -0.0062415483 -0.019470746 0.043778338 0.82073706 -0.30782083 -0.41626653 0.37770212
0.32828906 0.3071432 -0.32674083 -0.8575138 -0.1535244 -0.78855884 -0.3234188 -0.26610598
0.14435655 -0.6709346 -0.005259442 -0.55257237 -0.20066608 -0.23730074 0.55171615 1.0609045
-0.258329 0.20902999 -0.020241484 -0.042555943 -0.33524656 -0.88385636 -0.1626142 -0.8365609
-0.35084632 -0.27539733 0.19234225 -0.6869302 -0.062468074 -0.6401257 -0.24407043 -0.2393948
-0.2580657 -0.44099474 0.0088795135 -0.014767211 -0.01144821 0.03457091 -0.17208926 -0.45536262
-0.0051978533 -0.0013768424 0.07423775 0.11492797 -0.11012167 1.158625 -0.3825032 0.54428095
-0.108109385 -0.10307793 -0.26452345 -0.910764 -0.14042492 -0.7554328 -0.2834504 -0.2281326
00000000: 682e 5ebe 760a 57bf 4b50 e1bd be29 47bf
00000010: 3ff2 c9be 874a adbe 8cf9 8cbe 91d6 1bbe
00000020: dc06 283c c385 dd3b 83c5 133e 1018 6d3e
00000030: 5ea6 183e 3492 423f 2381 99bd 36a3 183d
00000040: 854e d6bd fc0c 48be 73e1 883f 9a20 953e
00000050: d203 0c3e c9e0 8d3d 6dd4 133f 0caa 033f
00000060: 4513 61be 5a78 55bf 205c cfbd 1795 38bf
00000070: 79d8 b0be b027 7cbe 90a8 14be 0285 eabe
00000080: 03a0 d6bc 1887 4f3c 83c0 03bf c103 cbbe
00000090: 5313 68be 3a4a 5fbf 3828 963e 4a35 6dbf
000000a0: 5dd1 50be 5184 a1be 0400 8ebe dd47 63bf
000000b0: dab7 14be 13a4 49bf a27f c8be 21ac 9ebe
000000c0: 0cc7 433f 72f7 fe3e 696a fa3c 5d82 613e
000000d0: 4573 e53e 77d0 c43e 1b82 1cbd ba95 84bf
000000e0: 5369 533d 0aad 11bf 4d9d b5bd 9fb5 73bd
000000f0: 5301 90be b6e1 69bf 0c71 08be 9cbc 45bf
00000100: 42de 99be 05c2 78be fe82 943e 8b3c 373f
00000110: 251e a5be 1a26 0f3f fa86 443f ded4 613f
00000120: ef11 8cbe 41f1 a6bf d4d7 d53e 5acf 28bf
00000130: ab70 2cbe 1efa 33be 9ab2 46bf 18f2 97be
00000140: d3d0 68bf 0ace c7be d638 c2bd 6591 08bb
00000150: a245 1abe 9ef2 27bf b036 76bc f2b8 633d
00000160: aad1 00bd 6e24 78bb b4f0 7f3e 86d2 103f
00000170: 0780 593b ed7a 1abc 7d37 f6bc 64ee 63bd
00000180: 9d43 113f fb3a 783f 74ab f6bd f823 603e
00000190: 80e9 3bbd 1ad1 c7bd d473 f93e 41dc d83e
000001a0: 7d84 e03c 46ee 1b3e 8a3f 163e 92b6 033e
000001b0: 768e 15bf 446e 45be 68c2 32bb 7cc6 053b
000001c0: 98e2 e8bc e673 873d 3f4b d73f 18ea 993f
000001d0: 410c 69be 603f 9f3e cf3c 753f c850 703f
000001e0: 6d1a ce3e c88a 94be d2b3 b43a f6f6 8c3a
000001f0: 17c2 893d 24e0 cf3d 4681 ac3e ceca 96be
00000200: 7a14 97bc e785 ccbb 1d81 9fbc ea50 333d
00000210: d31b 523f b19a 9dbe e320 d5be 2c62 c13e
00000220: 8115 a83e e041 9d3e 934a a7be 0686 5bbf
00000230: 8035 1dbe fede 49bf 2697 a5be 0b3f 88be
00000240: 34d2 133e 5fc2 2bbf 6657 acbb 6275 0dbf
00000250: 697b 4dbe f7fe 72be 453d 0d3f b8cb 873f
00000260: b343 84be f50b 563e 78d1 a5bc 244f 2ebd
00000270: 70a5 abbe 6944 62bf 5684 26be db28 56bf
00000280: 21a2 b3be e100 8dbe 5ef5 443e a8da 2fbf
00000290: 86de 7fbd 47df 23bf 99ed 79be e923 75be
000002a0: 3021 84be 10ca e1be 617b 113c 2cf2 71bc
000002b0: 4691 3bbc 3a9a 0d3d 2b38 30be 4a25 e9be
000002c0: c152 aabb 2a77 b4ba f609 983d 5b5f eb3d
000002d0: 7887 e1bd d34d 943f 76d7 c3be ff55 0b3f
000002e0: 7468 ddbd 861a d3bd 9e6f 87be d427 69bf
000002f0: 8dcb 0fbe 0b64 41bf 6920 91be 989b 69be

rnn.weight_hh_l0 f4 [32, 32]
0.37894222 -0.111061595 0.45593393 0.18258622 0.40021154 -0.116458945 0.09912364 0.3800542
0.17805715 0.050715398 0.37863404 -0.39571464 0.18121059 -0.40897685 -0.107952975 0.21829994
-0.16249408 0.37449068 -0.10580488 -0.29269496 -0.18232647 -0.14449622 -0.028530408 0.42964512
0.17069118 -0.0042534634 0.4252416 0.17526609 -0.1342536 -0.1620853 -0.00539473 0.35807133
-0.20975809 -0.1181082 -0.24207191 -0.07174527 -0.22120182 0.09072844 0.15618263 -0.15278535
-0.09141814 0.18029493 -0.21903913 -0.14583236 0.12088007 0.10415918 0.47946304 0.08901313
-0.0445018 0.045836627 0.56309915 0.006377551 0.08601144 0.17720143 0.14898615 -0.15292181
-0.1023044 -0.42021042 -0.14939873 -0.06966518 -0.49981233 0.02031508 -0.07412127 -0.1681141
1.1180323 1.4564332 0.3372352 -0.19670753 1.1180006 1.1189632 0.65577346 1.0603445
-0.090413764 0.6712052 1.0824269 -0.47503597 0.80202395 -0.15266487 0.47552592 0.33071315
-0.5208442 -0.27922827 1.5432036 -0.8026507 1.0442326 1.3284104 0.3413206 1.0314292
0.8491965 -0.52290773 1.0575814 0.78592587 0.49222508 0.98548615 -0.6662587 1.070537
0.6248617 -0.32933506 1.168031 -0.12212215 0.57309437 -1.622428 0.24548133 0.6454132
0.8303909 0.29962486 0.56858003 -0.80271095 0.43139955 -1.1511467 0.029348236 1.0863954
-0.48329663 0.7964959 -0.3151383 -0.4645828 -0.6645551 -0.51722085 0.43516362 0.5907218
0.44173256 -0.24082817 0.607712 0.4479526 -0.24895863 -0.6080743 -0.106433995 0.61724746
0.40150085 -0.1359776 0.38627943 0.18445951 0.3414882 -0.13394566 0.13228428 0.39107147
0.16172132 0.075841434 0.33751827 -0.34419584 0.112735644 -0.3879894 -0.09883712 0.19312939
-0.097554326 0.3156136 -0.13236149 -0.30028 -0.1679073 -0.17129171 0.038283054 0.40363607
0.16852981 0.018243462 0.42105618 0.2101907 -0.144588 -0.15466014 0.030882029 0.39990065
-0.44445142 -0.33782092 -0.8138737 -0.2868431 -0.46525595 -0.047759872 -0.21611442 -0.47034186
-0.29881135 -0.2823357 -0.47841412 0.5216405 -0.17218064 0.8917155 -0.50879455 -0.119812585
0.5195443 -0.045137223 0.2966968 0.605912 -0.12823085 0.40970263 -0.54544455 -0.4283555
-0.28605717 0.2905618 -0.4125082 -0.30009907 -0.48484874 -0.033938374 0.07262283 -0.4709429
0.43542746 0.05717979 0.49831858 0.15523645 0.4168307 0.00998051 0.2575365 0.45131052
0.14527838 0.5354308 0.47739208 -0.34819674 0.0896859 -0.2393819 0.09516902 0.044378
-0.17117758 0.3622544 -0.03297296 -0.35580623 0.15223885 0.12046452 0.011208718 0.4284809
0.5073567 0.012578792 0.47690725 0.53912264 0.05981556 0.14193551 -0.13769816 0.43619242
0.40817174 -0.105109185 0.41783836 0.18488848 0.40336818 -0.19399719 0.09794494 0.32362708
0.16181974 0.022228757 0.37772274 -0.36005664 0.15499441 -0.36965892 -0.105172694 0.20985731
-0.13507274 0.33059356 -0.06641192 -0.29809785 -0.17646696 -0.15867211 -0.0019147045 0.43462503
0.17575282 0.037794977 0.4506112 0.16335282 -0.11786546 -0.1647718 -0.0060367086 0.3752956
00000000: b704 c23e 4374 e3bd 2c70 e93e e2f7 3a3e
00000010: 87e8 cc3e 0782 eebd 5601 cb3d 7796 c23e
00000020: 9d54 363e f3ba 4f3d 52dc c13e 1c9b cabe
00000030: 458f 393e 6a65 d1be 7316 ddbd 058a 5f3e
00000040: d964 26be 3ebd bf3e 3bb0 d8bd 1ddc 95be
00000050: cab3 3abe d1f6 13be 9ab8 e9bc 72fa db3e
00000060: abc9 2e3e a360 8bbb 44b9 d93e f478 333e
00000070: c779 09be b0f9 25be 46c6 b0bb 2055 b73e
00000080: d3ca 56be b6e2 f1bd b3e1 77be 2fef 92bd
00000090: bb82 62be d5cf b93d 57ee 1f3e c373 1cbe
000000a0: 6f39 bbbd 3c9f 383e cb4b 60be 1455 15be
000000b0: f88f f73d 6851 d53d 2e7c f53e 844c b63d
000000c0: 8547 36bd 30bf 3b3d 4427 103f c6fa d03b
000000d0: c426 b03d 4b74 353e d38f 183e 8997 1cbe
000000e0: f884 d1bd d225 d7be fbfb 18be 9eac 8ebd
000000f0: 67e7 ffbe d06b a63c e4cc 97bd 1a26 2cbe
00000100: af1b 8f3f 676c ba3f 18aa ac3e b36d 49be
00000110: a51a 8f3f 303a 8f3f c5e0 273f 5eb9 873f
00000120: da2a b9bd 1bd4 2b3f f78c 8a3f ea37 f3be
00000130: 7151 4d3f 2e54 1cbe 2278 f33e 3c53 a93e
00000140: 0c56 05bf 02f7 8ebe b287 c53f 847a 4dbf
00000150: 6aa9 853f 5a09 aa3f 93c1 ae3e df05 843f
00000160: f164 593f 48dd 05bf d45e 873f 7032 493f
00000170: ed04 fc3e d248 7c3f ee8f 2abf 5b07 893f
00000180: f0f6 1f3f 9b9e a8be 0a82 953f 2e1b fabd
00000190: 50b6 123f b9ab cfbf 755f 7b3e cd39 253f
000001a0: 7f94 543f 6e68 993e 768e 113f 777e 4dbf
000001b0: 67e0 dc3e c658 93bf b66b f03c 010f 8b3f
000001c0: a872 f7be 28e7 4b3f cf59 a1be ccdd edbe
000001d0: 4820 2abf 9668 04bf c4cd de3e 8b39 173f
000001e0: c52a e23e a99b 76be 0393 1b3f 0b5a e53e
000001f0: 03ef 7ebe c2aa 1bbf 11fa d9bd ee03 1e3f
00000200: 8591 cd3e b63d 0bbe 6bc6 c53e f4e2 3c3e
00000210: 8bd7 ae3e 0d29 09be 8875 073e 853a c83e
00000220: 469a 253e c152 9b3d 32cf ac3e 703a b0be
00000230: f2e1 e63d 8ca6 c6be 1e6b cabd b6c3 453e
00000240: 90ca c7bd 1b98 a13e c589 07be 4dbe 99be
00000250: e4ef 2bbe 1867 2fbe b1ce 1c3d 63a9 ce3e
00000260: 1493 2c3e 5073 953c ad94 d73e 3b3c 573e
00000270: e00e 14be 3a5f 1ebe 4ffc fc3c c7bf cc3e
00000280: 238f e3be ddf6 acbe 075a 50bf 19dd 92be
00000290: 0736 eebe db9f 43bd 194d 5dbe a6d0 f0be
000002a0: cdfd 98be 4e8e 90be b2f2 f4be 3b8a 053f
000002b0: 1f50 30be 7847 643f 5c40 02bf 4d60 f5bd
000002c0: db00 053f cfe1 38bd a5e8 973e 0d1d 1b3f
000002d0: f34e 03be 8bc4 d13e 41a2 0bbf 6951 dbbe
000002e0: 1676 92be 84c4 943e 4634 d3be 96a6 99be
000002f0: 183e f8be f702 0bbd 47bb 943d 6e1f f1be
00000300: 59f0 de3e 5b35 6a3d 9d23 ff3e 4ef6 1e3e
00000310: d56a d53e 4b85 233c d3db 833e 2c12 e73e
00000320: dbc3 143e fe11 093f bc6c f43e d846 b2be
00000330: 3ead b73d 8720 75be fae7 c23d b5c5 353d
00000340: 2d49 2fbe 6979 b93e a80e 07bd 3c2c b6be
00000350: 80e4 1b3e 1ab6 f63d c5a4 373c d961 db3e
00000360: 21e2 013f 4717 4e3c 302d f43e f103 0a3f
00000370: 2901 753d 8b57 113e bf00 0dbe 9d54 df3e
00000380: e3fb d03e 7c43 d7bd e9ee d53e 6853 3d3e
00000390: 4686 ce3e 33a7 46be 5b97 c83d 73b2 a53e
000003a0: 13b4 253e 1519 b63c e064 c13e 5859 b8be
000003b0: dbb6 1e3e ef43 bdbe c864 d7bd d6e4 563e
000003c0: 8250 0abe 8f43 a93e f902 88bd 48a0 98be
000003d0: c1b3 34be f17a 22be d2f6 faba 2c87 de3e
000003e0: 8cf8 333e e8ce 1a3d 83b6 e63e f645 273e
000003f0: 7263 f1bd f0b9 28be 95cf c5bb bf26 c03e

rnn.bias_ih_l0 f4 [32]
-0.9657484 0.33913168 0.129473 -0.5208955 -0.88505226 0.5292513 -0.9760483 -0.94889563
-0.3718905 -0.8394778 -0.9253292 1.0397525 -0.5087323 0.6485498 0.10847658 -0.611745
0.12223961 -0.6115531 0.34076333 0.18617204 0.346449 0.2956819 -0.18636987 -0.91802275
-1.0142801 0.02981578 -0.9834498 -1.0623488 0.28839412 0.52216995 0.45333424 -0.9223872
00000000: 4a3b 77bf aba2 ad3e 9294 043e 6859 05bf
00000010: c992 62bf 037d 073f 4dde 79bf d3ea 72bf
00000020: 6e68 bebe 04e8 56bf 60e2 6cbf 9c16 853f
00000030: 483c 02bf 5c07 263f f828 de3d 529b 1cbf
00000040: c358 fa3d be8e 1cbf 8878 ae3e e2a3 3e3e
00000050: c361 b13e 9e63 973e bed7 3ebe 8a03 6bbf
00000060: eed3 81bf 3940 f43c 5ec3 7bbf 0cfb 87bf
00000070: 65a8 933e eeac 053f 6d1b e83e 9121 6cbf

rnn.bias_hh_l0 f4 [32]
-0.9657484 0.33913168 0.129473 -0.5208955 -0.88505226 0.5292513 -0.9760483 -0.94889563
-0.3718905 -0.8394778 -0.9253292 1.0397525 -0.5087323 0.6485498 0.10847658 -0.611745
0.12223961 -0.6115531 0.34076333 0.18617204 0.346449 0.2956819 -0.18636987 -0.91802275
-1.0142801 0.02981578 -0.9834498 -1.0623488 0.28839412 0.52216995 0.45333424 -0.9223872
00000000: 4a3b 77bf aba2 ad3e 9294 043e 6859 05bf
00000010: c992 62bf 037d 073f 4dde 79bf d3ea 72bf
00000020: 6e68 bebe 04e8 56bf 60e2 6cbf 9c16 853f
00000030: 483c 02bf 5c07 263f f828 de3d 529b 1cbf
00000040: c358 fa3d be8e 1cbf 8878 ae3e e2a3 3e3e
00000050: c361 b13e 9e63 973e bed7 3ebe 8a03 6bbf
00000060: eed3 81bf 3940 f43c 5ec3 7bbf 0cfb 87bf
00000070: 65a8 933e eeac 053f 6d1b e83e 9121 6cbf

linear_out.weight f4 [2, 32]
0.00037614617 0.0025580798 -0.098454356 0.00039648288 0.0003649901 0.19589758 0.0024354358 0.1483624
0.00039447122 0.0025462005 0.0032078896 0.0029116566 0.013302161 0.0026252207 0.14982656 -0.15016016
0.0003060565 0.0020511353 -0.08820686 0.00039195552 0.0003820607 0.00035616127 0.00036674988 0.087280765
0.0023126595 0.07288442 -0.06826023 0.0026118078 0.00034182236 0.00034605965 0.00043931816 0.0025662459
0.27341387 -0.39148647 0.13804467 0.27171487 0.27301326 -0.052059796 -0.36334723 -0.03615871
0.26997316 -0.33465007 -0.41642964 -0.37915474 -0.07298641 -0.41102475 0.00085462193 -0.11754637
0.2726472 -0.3306425 0.19397925 0.27975005 0.2718664 0.2719946 0.27353647 0.03488763
-0.3570155 -0.052445903 0.070075445 -0.416145 0.27296692 0.27608722 0.296905 -0.38197032
00000000: 7c35 c539 75a5 273b 70a2 c9bd 08df cf39
00000010: 245c bf39 6099 483e d59b 1f3b 50ec 173e
00000020: 08d1 ce39 28de 263b 753b 523b 7ed1 3e3b
00000030: 4ff1 593c e50b 2c3b 226c 193e 96c3 19be
00000040: 3576 a039 576c 063b cca5 b4bd 617f cd39
00000050: 524f c839 28bb ba39 5648 c039 42c0 b23d
00000060: fd8f 173b 6d44 953d 05cc 8bbd dd2a 2b3b
00000070: 9f36 b339 576f b539 4954 e639 762e 283b
00000080: e7fc 8b3e ea70 c8be 955b 0d3e 361e 8b3e
00000090: 65c8 8b3e a73c 55bd a608 babe 281b 14bd
000000a0: ec39 8a3e 4157 abbe 4436 d5be 9220 c2be
000000b0: e679 95bd d671 d2be b508 603a 27bc f0bd
000000c0: 6a98 8b3e f949 a9be 7fa2 463e 663b 8f3e
000000d0: 1332 8b3e e042 8b3e f90c 8c3e 55e6 0e3d
000000e0: bcca b6be 84d1 56bd b783 8f3d f510 d5be
000000f0: 52c2 8b3e 4e5b 8d3e ef03 983e 9d91 c3be

linear_out.bias f4 [2]
-0.009973434 18.111698
00000000: 9d67 23bc c2e4 9041

layer_norm.weight f4 [32]
-0.0008142154 -0.84285766 0.00013342132 0.0012477172 0.0010267604 -0.5588562 -0.0015641715 0.0003489925
0.0006877695 -0.0005390033 0.0018645301 0.00024086954 -0.0016234703 0.0024598832 -0.5644522 0.40893215
-0.0021467418 -0.00092948636 0.8273157 -0.0009913222 -0.85498506 -0.8724 -0.00071481674 0.000170527
-0.002188671 -0.0018547128 0.0007685691 -0.0011289306 -0.73007095 0.8308797 -0.000486812 0.001535341
00000000: 1271 55ba 85c5 57bf 03e7 0b39 718a a33a
00000010: 5d94 863a 3311 0fbf e304 cdba fbf8 b639
00000020: 6e4b 343a e64b 0dba 4063 f43a ed91 7c39
00000030: a0ca d4ba fe35 213b f07f 10bf 8e5f d13e
00000040: 5ab0 0cbb c6a8 73ba f6ca 533f 41ef 81ba
00000050: 4de0 5abf 9b55 5fbf 8a62 3bba 7ecf 3239
00000060: ce6f 0fbb d619 f3ba cd79 493a a0f8 93ba
00000070: eee5 3abf 88b4 543f cd3a ffb9 7f3d c93a

layer_norm.bias f4 [32]
0.0010630029 0.10536712 0.00017684064 -0.00060925004 -0.000517781 0.3898013 0.00051120605 0.00020802116
-0.0021729697 0.0012067688 -0.0013643974 -0.0012281471 0.001587917 0.0028978328 -0.22495656 -0.21588257
-0.0010989384 0.0005850541 -0.09182605 -0.00080239424 0.13351154 0.11843303 -0.0001355032 -0.00012178161
0.0016448932 -0.0018911511 -0.0012915508 0.0012421621 -0.040398985 -0.16420534 -0.0015497154 -0.0010946647
00000000: 7554 8b3a b7ca d73d 4c6e 3939 14b6 1fba
00000010: b2bb 07ba 0994 c73e 7502 063a 4120 5a39
00000020: 6268 0ebb 712c 9e3a 94d5 b2ba c7f9 a0ba
00000030: a721 d03a 91e9 3d3b 035b 66be 5210 5dbe
00000040: 410a 90ba 515e 193a 4c0f bcbd c457 52ba
00000050: 40b7 083e 048d f23d dd15 0eb9 0165 ffb8
00000060: 7599 d73a 80e0 f7ba 4149 a9ba 0bd0 a23a
00000070: 6879 25bd 7225 28be d21f cbba da7a 8fba
